backend/hft_core/models/ppo_hft.onnx (onnx, 292866 bytes, 6 tensors)

policy.mlp_extractor.policy_net.0.bias f4 [64]
00000000: b3b8 273d f17a 863d 8245 753d bd8c 98be
00000010: a074 123e d117 75bd 55eb 343d d21d 43be
00000020: 4b1b 62be 0833 153d 4a07 4fbc 30fa c53c
00000030: 3b85 8c3e 068b 333e 5167 4b3e 47b2 8bbe
00000040: eda9 ce3d 6147 a3bd 657d 93be ccce 933e
00000050: ae48 7c3e 17ff 7f3e 8c1b e4bc 3223 31be
00000060: 4876 a93d 3ad3 b93d 03fc 8d3e 82ab 293d
00000070: 2fb1 16be cea5 773e f98b 9c3e 561c 1ebe
00000080: d0df 33bd 9ecb 70bd 2fd1 44bd b87f e53d
00000090: a11e c43d 8fb9 88bd c4cb 16bb c5eb 8e3e
000000a0: 8506 df3d 29eb 3a3e fef5 56bd 8cc4 133e
000000b0: 2718 613e 82e7 b53e fbdc 3b3e be77 a23e
000000c0: c53e 033e 844f febd 6ded 7c3b 1395 e63c
000000d0: d384 c6bc aeed b7bd a0fd f13c 94d9 90bd
000000e0: 4e93 123d 7f90 8c3e fadd dabd 1d05 893e
000000f0: 3575 87be 48b2 42be b8c6 2d3c 4fca 4d3c
0.040947627 0.06566418 0.05988074 -0.29794875 0.14302301 -0.059837166 0.044169743 -0.19054344
-0.22080724 0.03642562 -0.012636015 0.02416715 0.27445397 0.17533502 0.19863631 -0.27284452
0.100910045 -0.07972599 -0.28806606 0.2886871 0.246371 0.24999653 -0.027845167 -0.17298582
0.082745135 0.090734914 0.27731332 0.04142333 -0.14716028 0.24184343 0.3057554 -0.15440497
-0.043914616 -0.058787934 -0.048051056 0.11206001 0.095761545 -0.066760175 -0.0023009637 0.27914253
0.108899154 0.18253769 -0.05248069 0.14430445 0.2198187 0.3552819 0.18346016 0.3173198
0.12816913 -0.1241751 0.0038593665 0.028147256 -0.024233257 -0.08980881 0.029539883 -0.0707275
0.035785012 0.27453992 -0.1068687 0.26761714 -0.2645661 -0.19013321 0.01060646 0.012560441

policy.mlp_extractor.policy_net.2.bias f4 [64]
00000000: 8395 a6be af58 48bd cc3d d3be 66f2 803e
00000010: 3d68 a9bd 0dbf db3e 1413 e6bc f66e ad3e
00000020: 8158 b9bb 047a 8b3d ea53 f83a aac4 8dbe
00000030: 7b33 643e 60d6 233e 4ce8 c83e 47dc 73bd
00000040: 247a 46bb a716 403d 2469 cb3e d3a1 e3bd
00000050: 1833 debe 6af5 c03c dd60 c73e d93a 4fbe
00000060: cce1 1cbe 1887 96be f940 36be 4ab5 6ebe
00000070: 042b 263e ac9a 8bbe 49b4 5b3e dbe1 bf3e
00000080: 0ec1 da3e 6b35 9939 8282 813e d80e b4be
00000090: 7734 35bc f61a 87be c28b 8abe b9f0 a5bc
000000a0: aa72 5fbe 4190 c0bc a141 c23e 8b3d a43e
000000b0: f7e9 cabe 0143 96be 6229 b73e ae5a 353c
000000c0: b6e1 c63e 6623 ca3e 8480 4c3d 945c d2be
000000d0: 4868 f63d 2997 7ebd d5a7 b4be e4a8 3bbd
000000e0: e473 c6be c93e 36bd e98a be3e 40d5 d93e
000000f0: 9a11 2e3e 6b6f bebe 692b 803e 9a4f 7fbd
-0.32535943 -0.0489127 -0.41258085 0.25184935 -0.08271835 0.42919198 -0.028085269 0.3387372
-0.0056563024 0.06810382 0.0018945907 -0.27689105 0.22285263 0.15999746 0.39239728 -0.059536245
-0.0030285204 0.046896603 0.39728653 -0.1111485 -0.43398356 0.023554523 0.38941088 -0.20237292
-0.1532051 -0.29399943 -0.17798223 -0.23311344 0.16227347 -0.27266443 0.21455492 0.37477002
0.42725414 0.00029222234 0.25294882 -0.35167575 -0.011059872 -0.26387757 -0.27059752 -0.020256387
-0.21821085 -0.023506286 0.37940696 0.32078204 -0.39631626 -0.29347995 0.3577376 0.011068983
0.3884408 0.39480132 0.04992725 -0.41086257 0.12031609 -0.062155876 -0.35284296 -0.045815364
-0.38760293 -0.04449347 0.37215355 0.4254551 0.16998902 -0.3719438 0.2503312 -0.062331773

policy.action_net.weight f4 [3, 64]
00000000: c371 18be 4fdc 17bd c0ab 5cbe 0897 803e
00000010: 074c 17be 2dd0 2f3e 9992 4e3d 9d61 a23e
00000020: f2d3 ca3d 7934 f93d 3bf3 a0bd abc6 57be
00000030: 4550 853e 5700 683e 7aac 8f3c 0dd3 b43e
00000040: 38a1 41be 1a28 2abe e8e5 223e c4c2 d43d
00000050: 6213 19be 8e95 1c3e d75b 523d b1a6 a03d
00000060: 3a62 97be 43d5 89bc 4d02 0e3e 6eda 7dbe
00000070: f11a 3fbd 2b15 d7bd 7620 4e3e 0218 7d3d
00000080: ace2 e5bb c45b 68be 3cd0 89bd f67c 163d
00000090: 25bb 513e 5d78 99bd e646 c23d f8ad 8fbe
000000a0: 6c81 a6be ab5f 8e3e 482a fd3d 5aa9 adbc
000000b0: e712 e1bc c163 43be 77af 133e ce1c 7b3e
000000c0: 72bc 093e e743 a03c a5a0 923e b6a6 62bd
000000d0: c536 343e 8bb4 3d3e 4421 67ba c377 933e
000000e0: 303c 98bc cdd4 1cbe 4eac 853e 1110 2f3e
000000f0: 155c 4a3e 89fc 06bd a07b 6c3e 01e7 fcbd
00000100: 7e76 4a3d 25fe c83c 60f2 493c 638c 0dbe
00000110: 6e50 ba3d 64a5 2d3d 97a3 2bbd a3ba 91bd
00000120: 5a54 bebd a1c4 9ebd 316d be3d e8fa ba3d
00000130: 4a14 14be 8170 ebbd 530c 6d3e 1de8 dfbe
00000140: 4f2a 393e b51f 373e 33ce a83d ae2b 2ebe
00000150: 393c 9abd 9663 2cbe 6241 e33d 72a0 0bbe
00000160: b3ef 3a3e 88dc 33be c793 90be 37dc bd3d
00000170: 1c09 e93d bb60 e73c 298f f2bd 85a2 653d
00000180: 9ae9 b23d 4cdb 843e 2467 5e3e ca58 4fbe
00000190: 34e3 87be 2b27 163d 6ae5 aabe 21d2 8d3e
000001a0: 7be8 263e eccf 88be 0ba5 8fbc 6fe8 113e
000001b0: cde5 00be 6c19 9c3d b299 623b f8a8 94be
000001c0: 3cc8 643d de86 273e a2b2 a2be cbd0 44be
000001d0: 1232 1abe 97eb 62be a267 46be d63d a7be
000001e0: b8a0 babd e38d 063e 921a 67bd 9819 4a3d
000001f0: 807d f6bd a8e1 0dbe 92d7 31be f02d 043e
00000200: 063d 123e 89f3 0e3c 0fe9 8f3e 8f46 1abe
00000210: 8286 853d 1d00 89be a37b 9f3b e84c acbe
00000220: 209b e13b bc89 68bd 8f3c 06bd 6cff 1a3e
00000230: 9492 0abe 82bb 0abe 37ad a7be b140 163e
00000240: 1b73 5dbb 74d9 cabc fbdf 98be 78c9 c73d
00000250: ba43 9c3e a025 433d 4d6b 71be 8ca6 923d
00000260: 781a 203e ee7f 823e 317b 513e 1155 563e
00000270: 7c2c c8bd 812c b23d 022c d6bd d9fa 19be
00000280: 79da e1bd 45b1 9cbd da6f 66be 0916 553e
00000290: 1a4a cd3d 2d5f 523d 1f3e a63e 5919 97bb
000002a0: abc2 553e 3413 233b 3ffb 10be 312f 23be
000002b0: bc2a 743e 6e14 203e 0c0c 4bbe bc0a ac3d
000002c0: 2210 89be 8a30 69be e48a a93d a068 a53e
000002d0: 4322 98bc ee7b 9a3d 7ef1 8a3e bb42 8d3d
000002e0: 347f 2b3e c814 663c 6753 70be 5878 94be
000002f0: 6778 d4bd 5437 663e b7f6 80bd b474 4dbc
-0.14887147 -0.037075337 -0.21549892 0.25115228 -0.14775096 0.17169257 0.050432775 0.31715098
0.099037066 0.121682115 -0.078588925 -0.2107188 0.26037803 0.2265638 0.017538298 0.3531727
-0.18909156 -0.1661686 0.15908015 0.10388711 -0.149488 0.15291426 0.051357117 0.07844294
-0.29567128 -0.016825324 0.13868065 -0.24790356 -0.046656553 -0.10502084 0.2012957 0.061790474
-0.007015547 -0.22691256 -0.06729171 0.036740266 0.20481546 -0.074936606 0.09486179 -0.28062415
-0.32520616 0.27807364 0.1236158 -0.021198917 -0.027474834 -0.19081022 0.14422403 0.24522707
0.13450792 0.019563628 0.28638187 -0.05533477 0.17599018 0.18525903 -0.00088169076 0.28802308
-0.018583387 -0.15315552 0.2610802 0.17095973 0.19761689 -0.03295568 0.23094034 -0.12348748
0.04942941 0.024535248 0.012325853 -0.13823085 0.09097372 0.042394057 -0.04190406 -0.07115676
-0.092934325 -0.07752348 0.0929817 0.09129888 -0.14460865 -0.11496068 0.23149233 -0.43731776
0.18082546 0.17883189 0.082424544 -0.1700885 -0.07531018 -0.16834864 0.11096455 -0.13635424
0.182555 -0.17564595 -0.28237745 0.09270518 0.113786906 0.028244367 -0.11843712 0.056063194
0.08735962 0.2594856 0.21719033 -0.20248714 -0.2654053 0.036658447 -0.33378154 0.27699378
0.16299622 -0.26721132 -0.017534753 0.14248823 -0.12587662 0.07622036 0.0034576473 -0.29035163
0.05585502 0.16360041 -0.3177691 -0.19220273 -0.15058163 -0.22160183 -0.1937547 -0.32664365
-0.09112686 0.13140063 -0.056421824 0.049340814 -0.12035656 -0.13855612 -0.1736739 0.12908149
0.14281091 0.0087250555 0.28107497 -0.15065978 0.06519796 -0.267579 0.0048670336 -0.33652425
0.0068849474 -0.05677198 -0.032772597 0.15136498 -0.13532478 -0.13548091 -0.3274934 0.14673115
-0.0033790532 -0.024761893 -0.29858384 0.09755224 0.3052042 0.047643304 -0.23576088 0.071606725
0.15635097 0.25488228 0.2045715 0.20930888 -0.0977411 0.08699895 -0.104576126 -0.15037097
-0.110279985 -0.07650999 -0.22503605 0.20809187 0.100238994 0.051360298 0.3246927 -0.004611176
0.20875041 0.0024883272 -0.14158343 -0.15935971 0.23844427 0.15632793 -0.19828814 0.08400485
-0.2677012 -0.22772422 0.082784444 0.32306385 -0.018571025 0.07543169 0.2713737 0.068974935
0.16747743 0.014043041 -0.23469315 -0.28998065 -0.103745274 0.22482044 -0.06297057 -0.012540031

policy.action_net.bias f4 [3]
00000000: 6e4f 3e3e c9b1 043e 4621 b8be
0.18584988 0.12958445 -0.35962886

policy.mlp_extractor.policy_net.0.weight f4 [64, 1020]
00000000: 0d56 903d 0452 07bd 5479 6b3b 0ab7 babc
00000010: 7582 d7bb 2e7c dfbd 1e2c 02be ea87 ebbd
00000020: fbcc f6bc d297 ad3d c311 0dbd 4944 c0bc
00000030: bfb1 af3c 3f56 8abd 014c 92bd 73ec 673c
00000040: 18e0 a93c 757c 313c f3b4 f13c 2d87 da3d
00000050: 2162 35bd 9bbf 0b3d b337 9dbd 0b62 65bd
00000060: 46ae 723d 2026 e83d e57a 8f3c a254 ddbc
00000070: eef9 07bd 6d55 b33d 34e8 9f3d 5494 55bc
00000080: c227 7c3d 3a06 333d 93ab b33c 43c2 c4bc
00000090: ff18 a5bb 2c90 1a3d 68e8 4c3c 2008 c6bd
000000a0: be27 af3c a89e 773d 07d5 963d 208c de3c
000000b0: 08a9 673d 3a92 ec3c 20b9 4d3d df6a 1e3d
000000c0: 54ec e03c 415b 893d 9413 fe3c 90b5 bd38
000000d0: 367f 1cbc 5ef6 043d faf5 afbd 0f69 093d
000000e0: d831 d0bc ab3a 83bc 8cc2 e63a 7dcf 3e3d
000000f0: 29cc 1f3d f738 3f3d e0d5 35bd 320d fb3d
00000100: 0f17 04be 4f7a 85bc 0e4c 3d3d c8eb 5f3d
00000110: 5061 80bd e548 363d 0159 733d 6d21 bbbc
00000120: e1e7 3bbc 36b0 153d 9331 d8bb 95ce 1ebb
00000130: 3ac5 6c3d 593f 2cbd fa91 683d 5323 22bb
00000140: 4adb 9c3c fdf6 88bc 3373 85bd 9095 333d
00000150: ca2f a2bc 6af4 babb c7f2 e7bc 16ca 033d
00000160: 7bc3 f3bc 77a6 463d cd97 7f3c 2042 073d
00000170: 9c74 083d f6d5 8d3d eb37 10bc 5aab 0f3d
00000180: 82c7 a6bc 3cf4 453e e7a0 423d c905 2d3b
00000190: f5d9 933d a007 d5bc be7f 033e 35ef eb3c
000001a0: 6343 633d 082c 3b3d 57f5 d63c 90f1 a2bc
000001b0: e5f4 5dbc a6e4 1f3e e924 883d 54c9 2c3c
000001c0: 6548 493c 4049 9bbd f819 ec3d 6729 5a3c
000001d0: 3176 113d d8ff 35bd 1278 be3c ce8f a0bd
000001e0: bd42 8ebd 4586 cb3c e68b a13d 1648 133d
000001f0: c7e0 01bc f836 4dbd 4aa0 01bd 43bb a13c
00000200: d2c5 3ebc adfa 2b3c 1fb4 f2bc fb43 aa3d
00000210: 9b53 b23d da76 f53c f877 0ebd 7e14 ccbc
00000220: 1f7b a3bc b6b8 283d 0541 cfbc 8c13 243d
00000230: d1bc b3bc d22b c63c d30d eabb 8ed5 243d
00000240: 420a e13d ffa5 993d 1d2a b3bc 09e5 21bd
00000250: 89fb 2c3d 6e67 b7bc f661 aabc a476 303d
00000260: 02d3 0cbc 94e9 983c 31ba 633d d713 c2bc
00000270: 6f24 853d b83b a3bd f008 2e3d 388f 98bd
00000280: d10e 493d d6d7 243e 03ac 313d f5f2 ba3b
00000290: 5242 96bc 01fc 083c 72eb acbc 4940 b9bd
000002a0: f29b 483d 87f6 8d3d b3c3 b53b d22d 31bd
000002b0: 3019 423a 3407 763d 9f7c c03c e04e 4cbd
000002c0: 11fc 51bc 737e 8b3c 9bd9 883d c2c7 5d3d
000002d0: c1ca 13bd 8889 d8bc 2f20 b63c ff4d 9abd
000002e0: abd5 a33b 1bf5 a63d 9429 3a3c 4872 273c
000002f0: e174 973d 862d 9ebc 5797 d83d 9778 66bd
00000300: 2a18 41bd 1601 20bd f23d 21bc 63bc 8f3d
00000310: 41b7 293d 0e9a 1abd 2d91 853c f993 8dbc
00000320: 9a09 e6bd a240 243c 7d6c bd3d 80d6 633c
00000330: 6e05 373d 7308 a23c 0b9b 293c 991d c43b
00000340: 2de0 dfbd 7e69 23be a9b6 a0bd 3560 9ebd
00000350: c8ec 1b3d e81e 773d 6308 8d3d d4e3 6fbd
00000360: d793 da3b 7589 263b 9906 19bd e268 153d
00000370: 6114 0c3c 89fd d7bb 51eb bebb a61d 8e3d
00000380: 28a0 bf3c 8015 05be 3241 dbbd ceb2 b3bd
00000390: 1964 5c3d ecab 9f3d b30b 2a3d e3b0 733c
000003a0: 5cae 70bd 97dc 02be e450 56bd 96c6 acbc
000003b0: a96a 9e3d 4a61 623d 2285 663c 7bc1 8c3c
000003c0: 5c6d c03d fb2d 0f3d 83b4 4fbd eb3a b8bd
000003d0: 96d3 8dbd 98e5 2ebd 85c9 663d d4b1 f83c
000003e0: ba9f 3cbc 3fed 98bd d104 83bc 6809 a6bd
000003f0: 0c75 a8bd 85a2 88bc 25f7 8d3c d051 523d
0.07047663 -0.0330372 0.0035930471 -0.022792358 -0.006576831 -0.10912357 -0.12712142 -0.11500533
-0.03012704 0.08476223 -0.034440767 -0.02347006 0.02144706 -0.067547314 -0.07143403 0.014155495
0.020736739 0.0108328955 0.029505229 0.10670314 -0.044283036 0.034118276 -0.076766394 -0.056001704
0.05924823 0.11335397 0.017514655 -0.027017895 -0.033197336 0.08756528 0.07807961 -0.013035852
0.061561354 0.04370711 0.021932399 -0.024018412 -0.00503838 0.03773515 0.012506582 -0.096695185
0.021381255 0.06045404 0.073648505 0.027166426 0.056557685 0.02887832 0.050225377 0.03867614
0.02745644 0.067068584 0.031015195 9.046041e-05 -0.009551814 0.032461517 -0.08591838 0.033547457
-0.025414392 -0.016019186 0.0017605587 0.046584595 0.03901306 0.046685185 -0.04439342 0.12258376
-0.12899421 -0.016293673 0.04621511 0.054668218 -0.06268561 0.04450311 0.059411053 -0.022843087
-0.011468858 0.036545 -0.0065977066 -0.002423202 0.057805277 -0.0420526 0.05677984 -0.0024740293
0.019147534 -0.016719336 -0.06516113 0.043843806 -0.019798178 -0.005705406 -0.028314007 0.032175146
-0.029756298 0.048498597 0.015600157 0.033022046 0.033314332 0.069255754 -0.008802394 0.035075523
-0.020358805 0.1933145 0.04751673 0.0026401153 0.072193064 -0.026004612 0.12841699 0.028800586
0.055484187 0.04569629 0.026240034 -0.019890577 -0.013547157 0.15614566 0.06647665 0.010546047
0.012285327 -0.07582331 0.11528391 0.013315535 0.035513107 -0.044433445 0.023250613 -0.078399286
-0.06946323 0.024844298 0.07888012 0.03595742 -0.007927126 -0.05010125 -0.031647004 0.019742614
-0.011643844 0.0104967775 -0.029626904 0.083137475 0.08707353 0.0299639 -0.03478238 -0.024912115
-0.01995617 0.04119178 -0.025299558 0.040057704 -0.02194062 0.024190817 -0.0071427613 0.040242724
0.10988285 0.07502364 -0.021870667 -0.039525066 0.04223207 -0.022388186 -0.020798665 0.043081895
-0.00859523 0.018666066 0.055597488 -0.023691101 0.0650109 -0.07970375 0.042488992 -0.07449192
0.049086396 0.1609796 0.043376934 0.0057052323 -0.01834217 0.008360864 -0.021108363 -0.090454645
0.048976846 0.06931787 0.005547011 -0.04325659 0.0007404266 0.060065463 0.023496924 -0.04987991
-0.012816445 0.01702807 0.0668213 0.054145582 -0.036082033 -0.026432768 0.022232143 -0.07534408
0.0049998364 0.08152219 0.011362452 0.010220118 0.0739534 -0.019308817 0.10575741 -0.056267347
-0.047142185 -0.039063536 -0.009841429 0.07018354 0.04143453 -0.037744574 0.016304577 -0.017282473
-0.112323 0.010025175 0.09249208 0.013906121 0.044682913 0.01977942 0.0103519065 0.0059849736
-0.1093143 -0.15958211 -0.0784734 -0.07733194 0.03806761 0.06033221 0.06886365 -0.058566883
0.006670456 0.002541152 -0.037359808 0.036476977 0.008549781 -0.006591503 -0.0058263917 0.06939249
0.023391798 -0.12996483 -0.107057944 -0.08774339 0.053806398 0.07796463 0.041515063 0.014873716
-0.058760032 -0.12779461 -0.052323237 -0.021090787 0.077351876 0.055268563 0.014069827 0.017182102
0.09395859 0.03495596 -0.05070926 -0.08995613 -0.069251224 -0.042699426 0.056344528 0.030358233
-0.011512691 -0.07467126 -0.015993508 -0.08107263 -0.0822545 -0.016679058 0.017329762 0.051347554

policy.mlp_extractor.policy_net.2.weight f4 [64, 64]
00000000: 280d 48be f760 c1be c239 563e bfe3 da3d
00000010: f830 8ebe 6907 2dbe 0603 693e 5dda 0c3e
00000020: 5b60 0abd a06b 93bc 335a 6ebe 0a63 47be
00000030: 2981 d23c 6d71 1dbe e946 3abc ca0b b33d
00000040: 0eab 973e 96ca 13be 94f8 b53e d614 d53c
00000050: e6c3 97bd b7e4 9abe 283b 223e 52bc f7bc
00000060: 5f61 b6be 9414 f23d 36a4 52bd 2aaa f9bd
00000070: f1ee 4dbc e56d 8dbd b5f2 5c3d 96e9 8ebe
00000080: 2893 7b3c e379 2fbe f447 e43d 4530 eebc
00000090: 4434 f9bd dc3b 1cbe 289a 0b3e 2455 0ebe
000000a0: a9db 113e f18a ad3d 5d72 b1bd 514e c3be
000000b0: f52b e3bd 0cde abbe d49c 223e 6233 e5bd
000000c0: 1610 df3d cc57 cf3e a33d d53c 9b58 49be
000000d0: 6784 793b c65c 3d3e 7bb5 8fbe d7a8 3f3e
000000e0: efe0 2b3e 9cb3 323e e5df 93be 5383 52be
000000f0: 60ac 0a3d 4f07 0b3e b251 56be 835f cb3d
00000100: 939e 2f3e 71e6 2e3e 2a55 9bbe 1d55 d43d
00000110: 5f63 763e 1382 7abb 3041 eebc b390 9dbe
00000120: 2d89 89bd 4114 763e 466d 2cbe fe44 ec3d
00000130: a590 583e f5d2 23bd bd7a 6bbd c9fd 9a3e
00000140: 0b27 453e 2580 16be ae4e 1ebd 7ddf ee3d
00000150: 9bd4 b9bd 1115 97bd 304b 373e cfe0 fb3c
00000160: 2b0a a6be 2330 443e edda 313e 3287 2dbe
00000170: b422 0f3e 91fb 98be 0b59 213e 9aec 643e
00000180: 17ce 12bc fc56 fc3c 578d 2d3c 4f8c 2bbe
00000190: 09e2 8cbe 5be7 413e 369e 7ebe 0f78 db3d
000001a0: 6820 48bd 38e0 16be 8d08 353e 090d 873e
000001b0: 8eba 8fbe e010 c03d e56d 39be eb7c 3cbe
000001c0: ef1b d43d 55bb 473e a21d 253e ad31 853c
000001d0: d16c a83e 67f3 3e3d 51c2 ba3e 0558 963d
000001e0: b012 8abd e490 60bd 011e 58be 116f 3e3d
000001f0: fd04 2cbe db86 e2bb 0337 e2be 355d f8bd
00000200: 3a69 53be fd01 973c 64d5 d8bd 30fa 3e3e
00000210: 0b75 cfbe 5899 033e 7641 883d 08e3 7d3e
00000220: e2b8 a03c 7bdc 013e 8498 88be 5d45 68be
00000230: be3e e2bd e891 3ebe c4eb 6ebe 4bf3 5c3e
00000240: 9810 05be ca79 23be 9679 723d 68c6 2dbe
00000250: dd36 03bf 6bb0 b6be cc14 673d 7b3c 9e3e
00000260: 980a 83be 39bc 083e ce23 0cbe b59a 90bd
00000270: bc77 8e3d 94bb 71be 11a5 5cbe a374 53bd
00000280: 3fe8 793d 35d0 01be 596c 0f3e 5663 d43c
00000290: a960 ffbd 431d b1bd 5b01 33be 63f4 b93d
000002a0: f593 30be ecd7 37be 1e11 7e3e ca46 b33d
000002b0: 418e a53d 2d3b a63c 6e97 983d 0153 683e
000002c0: 73fa a43d 7a04 9c3e e768 ecbd 85b5 203e
000002d0: c2bc adbd 7a69 923e b5b8 8cbe 1e91 89be
000002e0: fb3f 9d3d 83d3 01be f19b 853e 9568 9e3e
000002f0: a54c 573d aab7 00bc 9f8f d0bd 36f2 dc3c
00000300: 92be 853c 21c8 aebc 9211 103e a7d9 8ebe
00000310: 9a2a 0a3f ac3e 573e 28c8 d33d 48dd 86bd
00000320: ab9b 5abd d4d8 95bd c8e4 103e f4b8 99bd
00000330: c058 91bd 363a d53d 71b9 333b 0016 aabe
00000340: abdb 0fbe 798b 02be 8354 3cbc c668 373e
00000350: c8c2 d1be 317f 9f3e 138d d0be 42ae 14be
00000360: 079f 843d 7a11 ff3c 65ad cb3d b94e a53c
00000370: c97d f53d d3a9 80be 4922 65bb 274c a8be
00000380: 6de5 a3be 5d0f 583e 2363 783e 3fe8 e43d
00000390: 8280 4dbd 0be3 9e3e 2981 283e b4fa 0c3e
000003a0: 9d3a b53d f544 683e 1641 313d ef83 0fbe
000003b0: e0b5 823d e9fe 13bd 8e71 a7bd 32fc 433d
000003c0: 4271 05bc 8373 5cbe d190 a7be 0403 23be
000003d0: 3d8b adbe 5679 dbbe 3fed 163e 8289 b3bd
000003e0: 652b 12bd e748 8bbd cb2d 2c3e 9d7c 51be
000003f0: 52a6 0fbc 8895 f53d 9b07 3dbe 88f7 033d
-0.19536269 -0.3776929 0.2092047 0.1068797 -0.27771735 -0.16897358 0.2275506 0.13755174
-0.033783298 -0.017995656 -0.23276596 -0.19471374 0.025696354 -0.153753 -0.011369445 0.08742483
0.29622692 -0.14432749 0.35541213 0.026010912 -0.074104115 -0.3025262 0.15842879 -0.030241165
-0.35621163 0.11820331 -0.051426135 -0.12190659 -0.012569175 -0.06905726 0.0539424 -0.27912587
0.015354909 -0.1713634 0.111465365 -0.029075751 -0.12168172 -0.1525721 0.13633025 -0.13899666
0.1424395 0.084737666 -0.08664391 -0.38145688 -0.110923685 -0.33567846 0.15880138 -0.11191441
0.1089174 0.4049667 0.026030367 -0.19662707 0.0038073303 0.18492422 -0.28068146 0.18716751
0.16785024 0.17451328 -0.28881755 -0.20557909 0.033855796 0.13577007 -0.20929602 0.09930327
0.17150335 0.17080094 -0.30338413 0.103677966 0.24061345 -0.0038224503 -0.029083818 -0.3077446
-0.06715617 0.24031164 -0.1683856 0.11536597 0.21148928 -0.039996106 -0.0574901 0.30271748
0.19253175 -0.14697321 -0.038649254 0.11663721 -0.090737544 -0.07377065 0.17899776 0.030746846
-0.32429633 0.19158988 0.1736867 -0.16946104 0.13978082 -0.2987943 0.15756623 0.22355881
-0.008960268 0.030803196 0.01059278 -0.16752742 -0.275162 0.18935911 -0.2486504 0.10716259
-0.04885903 -0.1473397 0.17679043 0.26377133 -0.28072017 0.09378219 -0.18108328 -0.18407027
0.103568904 0.19505055 0.16124585 0.016259039 0.3289552 0.046618845 0.36476377 0.07341007
-0.067418456 -0.05482568 -0.21105196 0.04649264 -0.16798778 -0.0069130487 -0.44182596 -0.12127153
-0.2064561 0.018433565 -0.10587576 0.18650126 -0.40518984 0.12851465 0.06653111 0.24793637
0.019619409 0.12681763 -0.2667886 -0.2268271 -0.110471234 -0.18610346 -0.23332125 0.21577184
-0.12994611 -0.15964428 0.059197985 -0.16970217 -0.5125559 -0.3568147 0.056416318 0.30905518
-0.2559402 0.13353051 -0.13685533 -0.07060758 0.06956431 -0.23606712 -0.21547343 -0.051624905
0.061012503 -0.12677081 0.14006175 0.025926273 -0.12469608 -0.08648159 -0.17480986 0.09079816
-0.17243941 -0.17953461 0.24811217 0.08753736 0.080837734 0.02029189 0.07450758 0.22687913
0.08055582 0.30472165 -0.11543446 0.15694244 -0.08483268 0.28596097 -0.2748467 -0.26868528
0.07678219 -0.12678342 0.26095536 0.30939165 0.05256333 -0.007856289 -0.101836435 0.026970964
0.016326223 -0.021335663 0.14069203 -0.2790043 0.53971255 0.21020001 0.10340911 -0.06585175
-0.053371113 -0.07316747 0.14149773 -0.0750598 -0.07097006 0.104114935 0.0027423764 -0.3321991
-0.1404864 -0.12748517 -0.011494759 0.17911062 -0.4096892 0.31151727 -0.4073263 -0.14519599
0.064756446 0.031136263 0.09945182 0.02017914 0.11986882 -0.25129566 -0.0034963062 -0.328706
-0.32010975 0.2109961 0.24256568 0.1117711 -0.050171383 0.31032595 0.1645552 0.1376751
0.0884907 0.22682555 0.04327496 -0.14015172 0.06382346 -0.036131773 -0.08175956 0.047847934
-0.008144679 -0.21528439 -0.32727674 -0.15919119 -0.33895293 -0.4286601 0.1473894 -0.08766462
-0.035685915 -0.068010144 0.16814344 -0.20457692 -0.008767681 0.119914114 -0.18459933 0.032218486
